…
ual_seed=67354, max_beta=1.0, min_beta=0.0, model_path='', model_signature='2019-03-18_23_13_59', no_cuda=False, nonlinearity='softplus', num_blocks=1, num_flows=4, num_householder=8, num_ortho_vecs=8, out_dir='snapshots', rademacher=False, rank=1, residual=False, retrain_encoder=False, rtol=1e-05, snap_dir='snapshots\\vae_mnist_no_flow__2019-03-18_23_13_59/', solver='dopri5', step_size=None, test_atol=None, test_rtol=None, test_solver=None, time_length=0.5, train_T=False, warmup=100, z_size=64)
Model on GPU
VAE(
  (q_z_nn): Sequential(
    (0): GatedConv2d(
      (sigmoid): Sigmoid()
      (h): Conv2d(1, 32, kernel_size=(5, 5), stride=(1, 1), padding=(2, 2))
      (g): Conv2d(1, 32, kernel_size=(5, 5), stride=(1, 1), padding=(2, 2))
    )
    (1): GatedConv2d(
      (sigmoid): Sigmoid()
      (h): Conv2d(32, 32, kernel_size=(5, 5), stride=(2, 2), padding=(2, 2))
      (g): Conv2d(32, 32, kernel_size=(5, 5), stride=(2, 2), padding=(2, 2))
    )
    (2): GatedConv2d(
      (sigmoid): Sigmoid()
      (h): Conv2d(32, 64, kernel_size=(5, 5), stride=(1, 1), padding=(2, 2))
      (g): Conv2d(32, 64, kernel_size=(5, 5), stride=(1, 1), padding=(2, 2))
    )
    (3): GatedConv2d(
      (sigmoid): Sigmoid()
      (h): Conv2d(64, 64, kernel_size=(5, 5), stride=(2, 2), padding=(2, 2))
      (g): Conv2d(64, 64, kernel_size=(5, 5), stride=(2, 2), padding=(2, 2))
    )
    (4): GatedConv2d(
      (sigmoid): Sigmoid()
      (h): Conv2d(64, 64, kernel_size=(5, 5), stride=(1, 1), padding=(2, 2))
      (g): Conv2d(64, 64, kernel_size=(5, 5), stride=(1, 1), padding=(2, 2))
    )
    (5): GatedConv2d(
      (sigmoid): Sigmoid()
      (h): Conv2d(64, 256, kernel_size=(7, 7), stride=(1, 1))
      (g): Conv2d(64, 256, kernel_size=(7, 7), stride=(1, 1))
    )
  )
  (q_z_mean): Linear(in_features=256, out_features=64, bias=True)
  (q_z_var): Sequential(
    (0): Linear(in_features=256, out_features=64, bias=True)
    (1): Softplus(beta=1, threshold=20)
  )
  (p_x_nn): Sequential(
    (0): GatedConvTranspose2d(
      (sigmoid): Sigmoid()
      (h): ConvTranspose2d(64, 64, kernel_size=(7, 7), stride=(1, 1))
      (g): ConvTranspose2d(64, 64, kernel_size=(7, 7), stride=(1, 1))
    )
    (1): GatedConvTranspose2d(
      (sigmoid): Sigmoid()
      (h): ConvTranspose2d(64, 64, kernel_size=(5, 5), stride=(1, 1), padding=(2, 2))
      (g): ConvTranspose2d(64, 64, kernel_size=(5, 5), stride=(1, 1), padding=(2, 2))
    )
    (2): GatedConvTranspose2d(
      (sigmoid): Sigmoid()
      (h): ConvTranspose2d(64, 32, kernel_size=(5, 5), stride=(2, 2), padding=(2, 2), output_padding=(1, 1))
      (g): ConvTranspose2d(64, 32, kernel_size=(5, 5), stride=(2, 2), padding=(2, 2), output_padding=(1, 1))
    )
    (3): GatedConvTranspose2d(
      (sigmoid): Sigmoid()
      (h): ConvTranspose2d(32, 32, kernel_size=(5, 5), stride=(1, 1), padding=(2, 2))
      (g): ConvTranspose2d(32, 32, kernel_size=(5, 5), stride=(1, 1), padding=(2, 2))
    )
    (4): GatedConvTranspose2d(
      (sigmoid): Sigmoid()
      (h): ConvTranspose2d(32, 32, kernel_size=(5, 5), stride=(2, 2), padding=(2, 2), output_padding=(1, 1))
      (g): ConvTranspose2d(32, 32, kernel_size=(5, 5), stride=(2, 2), padding=(2, 2), output_padding=(1, 1))
    )
    (5): GatedConvTranspose2d(
      (sigmoid): Sigmoid()
      (h): ConvTranspose2d(32, 32, kernel_size=(5, 5), stride=(1, 1), padding=(2, 2))
      (g): ConvTranspose2d(32, 32, kernel_size=(5, 5), stride=(1, 1), padding=(2, 2))
    )
  )
  (p_x_mean): Sequential(
    (0): Conv2d(32, 1, kernel_size=(1, 1), stride=(1, 1))
    (1): Sigmoid()
  )
)
beta = 0.0100
Epoch   1 [  100/50000 ( 0%)] | Time 1.571 | Loss  496.247375 | Rec  496.228882 | KL    1.846786
Epoch   1 [ 1100/50000 ( 2%)] | Time 0.160 | Loss  475.420349 | Rec  475.412811 | KL    0.754776
Epoch   1 [ 2100/50000 ( 4%)] | Time 0.157 | Loss  409.065887 | Rec  407.131958 | KL  193.394409
Epoch   1 [ 3100/50000 ( 6%)] | Time 0.152 | Loss  402.616791 | Rec  402.257416 | KL   35.935833
…
